…
>>> class_lstmBi.py loadded ...
>>> class_lstm.py loadded ...
>>> all modules loaded ...
%%%%%%%%%%%%%%%%%%%%%%%%%%%%%%%%%%%%%%%%

>>> Tenserflow version: 2.7.0 - with /device:GPU:0
>>> Keras version: 2.7.0
Drive already mounted at /content/drive; to attempt to forcibly remount, call drive.mount("/content/drive", force_remount=True).
>>> List of all local devices:
['/device:CPU:0', '/device:GPU:0']
%%%%%%%%%%%%%%%%%%%%%%%%%%%%%%%%%%%%%%%%

>>> tensor configuration ...
>>> cannot configure tensorflow
>>> intial configurations done...
%%%%%%%%%%%%%%%%%%%%%%%%%%%%%%%%%%%%%%%%

>>> reading TEST dataset ...
>>> TEST dimensions: (40, 512, 512, 3) , (40,)
========================================
>>> reading TRAIN dataset ...
>>> TRAIN dimensions: (40, 512, 512, 3) , (40,)
========================================
<><><><><><><><><><><><><><><><><><><><><><><><><><><><><><><><><><><><><><><><><><><><><><><><><><>
>>> starting model: CnnSeq with : program_0
>>> CnnSeq model intiated ...
>>> bulding CnnSeq model ...
>>> showing CnnSeq summery ...
Model: "sequential_6"
_________________________________________________________________
 Layer (type)                Output Shape              Param #   
=================================================================
 flatten_3 (Flatten)         (None, 786432)            0         
                                                                 
 dense_10 (Dense)            (None, 512)               402653696 
                                                                 
 dropout_3 (Dropout)         (None, 512)               0         
                                                                 
 dense_11 (Dense)            (None, 10)                5130      
                                                                 
=================================================================
Total params: 402,658,826
Trainable params: 402,658,826
Non-trainable params: 0
_________________________________________________________________
>>> plotting model: CnnSeq
>>> training CnnSeq model ...
WARNING:tensorflow:5 out of the last 14 calls to <function
…
<><><><><><><><><><><><><><><><><><><><><><><><><><><><><><><><><><><><><><><><><><><><><><><><><><>
>>> starting model: ResNet with : program_0
>>> ResNet model intiated ...
xxx deleted, model CnnFunctional
>>> bulding ResNet model ...
>>> showing ResNet summery ...
Model: "model_5"
_________________________________________________________________
 Layer (type)                Output Shape              Param #   
=================================================================
 input_7 (InputLayer)        [(None, 512, 512, 3)]     0         
                                                                 
 batch_normalization_10 (Bat  (None, 512, 512, 3)      12        
 chNormalization)                                                
                                                                 
 conv2d_22 (Conv2D)          (None, 512, 512, 32)      896       
                                                                 
 re_lu_9 (ReLU)              (None, 512, 512, 32)      0         
                                                                 
 batch_normalization_11 (Bat  (None, 512, 512, 32)     128       
 chNormalization)                                                
                                                                 
 conv2d_23 (Conv2D)          (None, 512, 512, 32)      9248      
                                                                 
 re_lu_10 (ReLU)             (None, 512, 512, 32)      0         
                                                                 
 batch_normalization_12 (Bat  (None, 512, 512, 32)     128       
 chNormalization)                                                
                                                                 
 conv2d_24 (Conv2D)          (None, 512, 512, 32)      9248      
                                                                 
 re_lu_11 (ReLU)             (None, 512, 512, 32)      0         
                                                                 
 batch_normalization_13 (Bat  (None, 512, 512, 32)     128       
 chNormalization)                                                
                                                                 
 conv2d_25 (Conv2D)          (None, 512, 512, 32)      9248      
                                                                 
 re_lu_12 (ReLU)             (None, 512, 512, 32)      0         
                                                                 
 batch_normalization_14 (Bat  (None, 512, 512, 32)     128       
 chNormalization)                                                
                                                                 
 conv2d_26 (Conv2D)          (None, 512, 512, 32)      9248      
                                                                 
 re_lu_13 (ReLU)             (None, 512, 512, 32)      0         
                                                                 
 batch_normalization_15 (Bat  (None, 512, 512, 32)     128       
 chNormalization)                                                
                                                                 
 conv2d_27 (Conv2D)          (None, 256, 256, 64)      18496     
                                                                 
 re_lu_14 (ReLU)             (None, 256, 256, 64)      0         
                                                                 
 batch_normalization_16 (Bat  (None, 256, 256, 64)     256       
 chNormalization)                                                
                                                                 
 conv2d_28 (Conv2D)          (None, 256, 256, 64)      36928     
                                                                 
 re_lu_15 (ReLU)             (None, 256, 256, 64)      0         
                                                                 
 batch_normalization_17 (Bat  (None, 256, 256, 64)     256       
 chNormalization)                                                
                                                                 
 conv2d_29 (Conv2D)          (None, 256, 256, 64)      36928     
                                                                 
 re_lu_16 (ReLU)             (None, 256, 256, 64)      0         
                                                                 
 batch_normalization_18 (Bat  (None, 256, 256, 64)     256       
 chNormalization)                                                
                                                                 
 conv2d_30 (Conv2D)          (None, 256, 256, 64)      36928     
                                                                 
 re_lu_17 (ReLU)             (None, 256, 256, 64)      0         
                                                                 
 batch_normalization_19 (Bat  (None, 256, 256, 64)     256       
 chNormalization)                                                
                                                                 
 average_pooling2d_1 (Averag  (None, 64, 64, 64)       0         
 ePooling2D)                                                     
                                                                 
 flatten_5 (Flatten)         (None, 262144)            0         
                                                                 
 dense_13 (Dense)            (None, 10)                2621450   
                                                                 
=================================================================
Total params: 2,790,294
Trainable params: 2,789,456
Non-trainable params: 838
_________________________________________________________________
>>> plotting model: ResNet
>>> training ResNet model ...
8/8 [==============================] - 8s 729ms/step - loss: 41.9841 - accuracy: 0.5250
…
<><><><><><><><><><><><><><><><><><><><><><><><><><><><><><><><><><><><><><><><><><><><><><><><><><>
>>> starting model: Vgg16 with : program_0
>>> Vgg16 model intiated ...
>>> bulding Vgg16 model ...
>>> showing Vgg16 summery ...
Model: "model_6"
_________________________________________________________________
 Layer (type)                Output Shape              Param #   
=================================================================
 input_8 (InputLayer)        [(None, 512, 512, 3)]     0         
                                                                 
 block1_conv1 (Conv2D)       (None, 512, 512, 64)      1792      
                                                                 
 block1_conv2 (Conv2D)       (None, 512, 512, 64)      36928     
                                                                 
 block1_pool (MaxPooling2D)  (None, 256, 256, 64)      0         
                                                                 
 block2_conv1 (Conv2D)       (None, 256, 256, 128)     73856     
                                                                 
 block2_conv2 (Conv2D)       (None, 256, 256, 128)     147584    
                                                                 
 block2_pool (MaxPooling2D)  (None, 128, 128, 128)     0         
                                                                 
 block3_conv1 (Conv2D)       (None, 128, 128, 256)     295168    
                                                                 
 block3_conv2 (Conv2D)       (None, 128, 128, 256)     590080    
                                                                 
 block3_conv3 (Conv2D)       (None, 128, 128, 256)     590080    
                                                                 
 block3_pool (MaxPooling2D)  (None, 64, 64, 256)       0         
                                                                 
 block4_conv1 (Conv2D)       (None, 64, 64, 512)       1180160   
                                                                 
 block4_conv2 (Conv2D)       (None, 64, 64, 512)       2359808   
                                                                 
 block4_conv3 (Conv2D)       (None, 64, 64, 512)       2359808   
                                                                 
 block4_pool (MaxPooling2D)  (None, 32, 32, 512)       0         
                                                                 
 block5_conv1 (Conv2D)       (None, 32, 32, 512)       2359808   
                                                                 
 block5_conv2 (Conv2D)       (None, 32, 32, 512)       2359808   
                                                                 
 block5_conv3 (Conv2D)       (None, 32, 32, 512)       2359808   
                                                                 
 block5_pool (MaxPooling2D)  (None, 16, 16, 512)       0         
                                                                 
 global_average_pooling2d_2   (None, 512)              0         
 (GlobalAveragePooling2D)                                        
                                                                 
=================================================================
Total params: 14,714,688
Trainable params: 14,714,688
Non-trainable params: 0
_________________________________________________________________
>>> plotting model: Vgg16
>>> training Vgg16 model ...
…
<><><><><><><><><><><><><><><><><><><><><><><><><><><><><><><><><><><><><><><><><><><><><><><><><><>
>>> starting model: vgg16Seq with : program_0
>>> vgg16Seq model intiated ...
>>> bulding vgg16Seq model ...
/usr/local/lib/python3.7/dist-packages/keras/optimizer_v2/gradient_descent.py:102: UserWarning: The `lr` argument is deprecated, use `learning_rate` instead.
  super(SGD, self).__init__(name, **kwargs)
>>> showing vgg16Seq summery ...
Model: "sequential_8"
_________________________________________________________________
 Layer (type)                Output Shape              Param #   
=================================================================
 conv2d_31 (Conv2D)          (None, 512, 512, 64)      1792      
                                                                 
 conv2d_32 (Conv2D)          (None, 512, 512, 64)      36928     
                                                                 
 max_pooling2d_4 (MaxPooling  (None, 256, 256, 64)     0         
 2D)                                                             
                                                                 
 conv2d_33 (Conv2D)          (None, 256, 256, 128)     73856     
                                                                 
 conv2d_34 (Conv2D)          (None, 256, 256, 128)     147584    
                                                                 
 max_pooling2d_5 (MaxPooling  (None, 128, 128, 128)    0         
 2D)                                                             
                                                                 
 conv2d_35 (Conv2D)          (None, 128, 128, 256)     295168    
                                                                 
 conv2d_36 (Conv2D)          (None, 128, 128, 256)     590080    
                                                                 
 conv2d_37 (Conv2D)          (None, 128, 128, 256)     590080    
                                                                 
 max_pooling2d_6 (MaxPooling  (None, 64, 64, 256)      0         
 2D)                                                             
                                                                 
 conv2d_38 (Conv2D)          (None, 64, 64, 512)       1180160   
                                                                 
 conv2d_39 (Conv2D)          (None, 64, 64, 512)       2359808   
                                                                 
 conv2d_40 (Conv2D)          (None, 64, 64, 512)       2359808   
                                                                 
 max_pooling2d_7 (MaxPooling  (None, 32, 32, 512)      0         
 2D)                                                             
                                                                 
 conv2d_41 (Conv2D)          (None, 32, 32, 512)       2359808   
                                                                 
 conv2d_42 (Conv2D)          (None, 32, 32, 512)       2359808   
                                                                 
 conv2d_43 (Conv2D)          (None, 32, 32, 512)       2359808   
                                                                 
 vgg16 (MaxPooling2D)        (None, 16, 16, 512)       0         
                                                                 
 flatten (Flatten)           (None, 131072)            0         
                                                                 
 fc1 (Dense)                 (None, 256)               33554688  
                                                                 
 fc2 (Dense)                 (None, 128)               32896     
                                                                 
 output (Dense)              (None, 1)                 129       
                                                                 
=================================================================
Total params: 48,302,401
Trainable params: 48,302,401
Non-trainable params: 0
_________________________________________________________________
>>> plotting model: vgg16Seq
>>> training vgg16Seq model ...
8/8 [==============================] - 10s 1s/step - loss: 0.6914 - accuracy: 0.5000
…
>>> Restored model, accuracy: 51.28%
>>> successful model: VggLstm with : program_0
xxx deleted, model VggLstm
<><><><><><><><><><><><><><><><><><><><><><><><><><><><><><><><><><><><><><><><><><><><><><><><><><>
>>> starting model: LstmConv2d with : program_0
>>> LstmConv2d model intiated ...
>>> bulding LstmConv2d model ...
(None, 2, 59, 59, 320)
>>> showing LstmConv2d summery ...
Model: "sequential_9"
_________________________________________________________________
 Layer (type)                Output Shape              Param #   
=================================================================
 conv_lstm2d_5 (ConvLSTM2D)  (None, 2, 506, 506, 32)   219648    
                                                                 
 activation_6 (Activation)   (None, 2, 506, 506, 32)   0         
                                                                 
 max_pooling3d_3 (MaxPooling  (None, 2, 253, 253, 32)  0         
 3D)                                                             
                                                                 
 conv_lstm2d_6 (ConvLSTM2D)  (None, 2, 249, 249, 64)   614656    
                                                                 
 max_pooling3d_4 (MaxPooling  (None, 2, 124, 124, 64)  0         
 3D)                                                             
                                                                 
 conv_lstm2d_7 (ConvLSTM2D)  (None, 2, 122, 122, 96)   553344    
                                                                 
 activation_7 (Activation)   (None, 2, 122, 122, 96)   0         
                                                                 
 conv_lstm2d_8 (ConvLSTM2D)  (None, 2, 120, 120, 96)   663936    
                                                                 
 activation_8 (Activation)   (None, 2, 120, 120, 96)   0         
                                                                 
 conv_lstm2d_9 (ConvLSTM2D)  (None, 2, 118, 118, 96)   663936    
                                                                 
 max_pooling3d_5 (MaxPooling  (None, 2, 59, 59, 96)    0         
 3D)                                                             
                                                                 
 dense_16 (Dense)            (None, 2, 59, 59, 320)    31040     
                                                                 
 activation_9 (Activation)   (None, 2, 59, 59, 320)    0         
                                                                 
 dropout_4 (Dropout)         (None, 2, 59, 59, 320)    0         
                                                                 
 reshape_1 (Reshape)         (None, 2, 1113920)        0         
                                                                 
 lstm_6 (LSTM)               (None, 2)                 8911384   
                                                                 
 dropout_5 (Dropout)         (None, 2)                 0         
                                                                 
 dense_17 (Dense)            (None, 2)                 6         
                                                                 
=================================================================
Total params: 11,657,950
Trainable params: 11,657,950
Non-trainable params: 0
_________________________________________________________________
>>> plotting model: LstmConv2d
>>> training LstmConv2d model ...
XXX Error in model: LstmConv2d with : program_0 in user code:
…
