…
>>> class_cnnSeq.py loadded ...
>>> class_res.py loadded ...
>>> class_lstmBi.py loadded ...
>>> class_lstm.py loadded ...
>>> class_vgg_lstm.py loadded ...
>>> all modules loaded ...
%%%%%%%%%%%%%%%%%%%%%%%%%%%%%%%%%%%%%%%%

>>> Tenserflow version: 2.7.0 - with /device:GPU:0
>>> Keras version: 2.7.0
Mounted at /content/drive
>>> List of all local devices:
['/device:CPU:0', '/device:GPU:0']
%%%%%%%%%%%%%%%%%%%%%%%%%%%%%%%%%%%%%%%%

>>> tensor configuration ...
>>> cannot configure tensorflow
>>> intial configurations done...
%%%%%%%%%%%%%%%%%%%%%%%%%%%%%%%%%%%%%%%%

>>> reading TEST dataset ...
>>> TEST dimensions: (40, 512, 512, 3) , (40,)
========================================
>>> reading TRAIN dataset ...
>>> TRAIN dimensions: (40, 512, 512, 3) , (40,)
========================================
<><><><><><><><><><><><><><><><><><><><><><><><><><><><><><><><><><><><><><><><><><><><><><><><><><>
>>> starting model: CnnFunctional with : program_0
>>> CnnFunctional model intiated ...
>>> bulding CnnFunctional model ...
>>> showing CnnFunctional summery ...
Model: "model"
_________________________________________________________________
 Layer (type)                Output Shape              Param #   
=================================================================
 input_1 (InputLayer)        [(None, 512, 512, 3)]     0         
                                                                 
 flatten (Flatten)           (None, 786432)            0         
                                                                 
 dense (Dense)               (None, 512)               402653696 
                                                                 
 dropout (Dropout)           (None, 512)               0         
                                                                 
 dense_1 (Dense)             (None, 10)                5130      
                                                                 
=================================================================
Total params: 402,658,826
Trainable params: 402,658,826
Non-trainable params: 0
_________________________________________________________________
>>> plotting model: CnnFunctional
>>> training CnnFunctional model ...
8/8 [==============================] - 4s 161ms/step - loss: 548.2567 - accuracy: 0.5000
…
<><><><><><><><><><><><><><><><><><><><><><><><><><><><><><><><><><><><><><><><><><><><><><><><><><>
>>> starting model: res with : program_0
>>> res model intiated ...
xxx deleted, model CnnSeq
>>> bulding res model ...
>>> showing res summery ...
Model: "model_1"
_________________________________________________________________
 Layer (type)                Output Shape              Param #   
=================================================================
 input_2 (InputLayer)        [(None, 512, 512, 3)]     0         
                                                                 
 batch_normalization (BatchN  (None, 512, 512, 3)      12        
 ormalization)                                                   
                                                                 
 conv2d (Conv2D)             (None, 512, 512, 32)      896       
                                                                 
 re_lu (ReLU)                (None, 512, 512, 32)      0         
                                                                 
 batch_normalization_1 (Batc  (None, 512, 512, 32)     128       
 hNormalization)                                                 
                                                                 
 conv2d_1 (Conv2D)           (None, 512, 512, 32)      9248      
                                                                 
 re_lu_1 (ReLU)              (None, 512, 512, 32)      0         
                                                                 
 batch_normalization_2 (Batc  (None, 512, 512, 32)     128       
 hNormalization)                                                 
                                                                 
 conv2d_2 (Conv2D)           (None, 512, 512, 32)      9248      
                                                                 
 re_lu_2 (ReLU)              (None, 512, 512, 32)      0         
                                                                 
 batch_normalization_3 (Batc  (None, 512, 512, 32)     128       
 hNormalization)                                                 
                                                                 
 conv2d_3 (Conv2D)           (None, 512, 512, 32)      9248      
                                                                 
 re_lu_3 (ReLU)              (None, 512, 512, 32)      0         
                                                                 
 batch_normalization_4 (Batc  (None, 512, 512, 32)     128       
 hNormalization)                                                 
                                                                 
 conv2d_4 (Conv2D)           (None, 512, 512, 32)      9248      
                                                                 
 re_lu_4 (ReLU)              (None, 512, 512, 32)      0         
                                                                 
 batch_normalization_5 (Batc  (None, 512, 512, 32)     128       
 hNormalization)                                                 
                                                                 
 conv2d_5 (Conv2D)           (None, 256, 256, 64)      18496     
                                                                 
 re_lu_5 (ReLU)              (None, 256, 256, 64)      0         
                                                                 
 batch_normalization_6 (Batc  (None, 256, 256, 64)     256       
 hNormalization)                                                 
                                                                 
 conv2d_6 (Conv2D)           (None, 256, 256, 64)      36928     
                                                                 
 re_lu_6 (ReLU)              (None, 256, 256, 64)      0         
                                                                 
 batch_normalization_7 (Batc  (None, 256, 256, 64)     256       
 hNormalization)                                                 
                                                                 
 conv2d_7 (Conv2D)           (None, 256, 256, 64)      36928     
                                                                 
 re_lu_7 (ReLU)              (None, 256, 256, 64)      0         
                                                                 
 batch_normalization_8 (Batc  (None, 256, 256, 64)     256       
 hNormalization)                                                 
                                                                 
 conv2d_8 (Conv2D)           (None, 256, 256, 64)      36928     
                                                                 
 re_lu_8 (ReLU)              (None, 256, 256, 64)      0         
                                                                 
 batch_normalization_9 (Batc  (None, 256, 256, 64)     256       
 hNormalization)                                                 
                                                                 
 average_pooling2d (AverageP  (None, 64, 64, 64)       0         
 ooling2D)                                                       
                                                                 
 flatten_2 (Flatten)         (None, 262144)            0         
                                                                 
 dense_3 (Dense)             (None, 10)                2621450   
                                                                 
=================================================================
Total params: 2,790,294
Trainable params: 2,789,456
Non-trainable params: 838
_________________________________________________________________
>>> plotting model: res
>>> training res model ...
8/8 [==============================] - 38s 742ms/step - loss: 27.1640 - accuracy: 0.6250
…
Downloading data from https://storage.googleapis.com/tensorflow/keras-applications/vgg16/vgg16_weights_tf_dim_ordering_tf_kernels_notop.h5
58892288/58889256 [==============================] - 1s 0us/step
58900480/58889256 [==============================] - 1s 0us/step
>>> showing vgg16 summery ...
Model: "model_2"
_________________________________________________________________
 Layer (type)                Output Shape              Param #   
=================================================================
 input_3 (InputLayer)        [(None, 512, 512, 3)]     0         
                                                                 
 block1_conv1 (Conv2D)       (None, 512, 512, 64)      1792      
                                                                 
 block1_conv2 (Conv2D)       (None, 512, 512, 64)      36928     
                                                                 
 block1_pool (MaxPooling2D)  (None, 256, 256, 64)      0         
                                                                 
 block2_conv1 (Conv2D)       (None, 256, 256, 128)     73856     
                                                                 
 block2_conv2 (Conv2D)       (None, 256, 256, 128)     147584    
                                                                 
 block2_pool (MaxPooling2D)  (None, 128, 128, 128)     0         
                                                                 
 block3_conv1 (Conv2D)       (None, 128, 128, 256)     295168    
                                                                 
 block3_conv2 (Conv2D)       (None, 128, 128, 256)     590080    
                                                                 
 block3_conv3 (Conv2D)       (None, 128, 128, 256)     590080    
                                                                 
 block3_pool (MaxPooling2D)  (None, 64, 64, 256)       0         
                                                                 
 block4_conv1 (Conv2D)       (None, 64, 64, 512)       1180160   
                                                                 
 block4_conv2 (Conv2D)       (None, 64, 64, 512)       2359808   
                                                                 
 block4_conv3 (Conv2D)       (None, 64, 64, 512)       2359808   
                                                                 
 block4_pool (MaxPooling2D)  (None, 32, 32, 512)       0         
                                                                 
 block5_conv1 (Conv2D)       (None, 32, 32, 512)       2359808   
                                                                 
 block5_conv2 (Conv2D)       (None, 32, 32, 512)       2359808   
                                                                 
 block5_conv3 (Conv2D)       (None, 32, 32, 512)       2359808   
                                                                 
 block5_pool (MaxPooling2D)  (None, 16, 16, 512)       0         
                                                                 
 global_average_pooling2d (G  (None, 512)              0         
 lobalAveragePooling2D)                                          
                                                                 
=================================================================
Total params: 14,714,688
Trainable params: 14,714,688
Non-trainable params: 0
_________________________________________________________________
>>> plotting model: vgg16
>>> training vgg16 model ...
…
