…
>>> class_vgg_lstm.py loadded ...
>>> all modules loaded ...
%%%%%%%%%%%%%%%%%%%%%%%%%%%%%%%%%%%%%%%%

>>> Tenserflow version: 2.7.0 - with /device:GPU:0
>>> Keras version: 2.7.0
Drive already mounted at /content/drive; to attempt to forcibly remount, call drive.mount("/content/drive", force_remount=True).
>>> List of all local devices:
['/device:CPU:0', '/device:GPU:0']
%%%%%%%%%%%%%%%%%%%%%%%%%%%%%%%%%%%%%%%%

>>> tensor configuration ...
>>> cannot configure tensorflow
>>> intial configurations done...
%%%%%%%%%%%%%%%%%%%%%%%%%%%%%%%%%%%%%%%%

>>> reading TEST dataset ...
>>> TEST dimensions: (40, 512, 512, 3) , (40,)
========================================
>>> reading TRAIN dataset ...
>>> TRAIN dimensions: (40, 512, 512, 3) , (40,)
========================================
<><><><><><><><><><><><><><><><><><><><><><><><><><><><><><><><><><><><><><><><><><><><><><><><><><><><><><><><><><><><>
>>> starting model: cnnSeq with : program_0
>>> cnnSeq model intiated ...
>>> bulding cnnSeq model ...
>>> showing cnnSeq summery ...
Model: "sequential_5"
_________________________________________________________________
 Layer (type)                Output Shape              Param #   
=================================================================
 flatten_4 (Flatten)         (None, 786432)            0         
                                                                 
 dense_9 (Dense)             (None, 512)               402653696 
                                                                 
 dropout_1 (Dropout)         (None, 512)               0         
                                                                 
 dense_10 (Dense)            (None, 10)                5130      
                                                                 
=================================================================
Total params: 402,658,826
Trainable params: 402,658,826
Non-trainable params: 0
_________________________________________________________________
>>> plotting model: cnnSeq
>>> training cnnSeq model ...
8/8 [==============================] - 2s 162ms/step - loss: 965.7869 - accuracy: 0.3000
…
<><><><><><><><><><><><><><><><><><><><><><><><><><><><><><><><><><><><><><><><><><><><><><><><><><><><><><><><><><><><>
>>> starting model: res with : program_0
>>> res model intiated ...
xxx deleted, model cnnFunctional
>>> bulding res model ...
>>> showing res summery ...
Model: "model_5"
_________________________________________________________________
 Layer (type)                Output Shape              Param #   
=================================================================
 input_8 (InputLayer)        [(None, 512, 512, 3)]     0         
                                                                 
 batch_normalization_20 (Bat  (None, 512, 512, 3)      12        
 chNormalization)                                                
                                                                 
 conv2d_31 (Conv2D)          (None, 512, 512, 32)      896       
                                                                 
 re_lu_18 (ReLU)             (None, 512, 512, 32)      0         
                                                                 
 batch_normalization_21 (Bat  (None, 512, 512, 32)     128       
 chNormalization)                                                
                                                                 
 conv2d_32 (Conv2D)          (None, 512, 512, 32)      9248      
                                                                 
 re_lu_19 (ReLU)             (None, 512, 512, 32)      0         
                                                                 
 batch_normalization_22 (Bat  (None, 512, 512, 32)     128       
 chNormalization)                                                
                                                                 
 conv2d_33 (Conv2D)          (None, 512, 512, 32)      9248      
                                                                 
 re_lu_20 (ReLU)             (None, 512, 512, 32)      0         
                                                                 
 batch_normalization_23 (Bat  (None, 512, 512, 32)     128       
 chNormalization)                                                
                                                                 
 conv2d_34 (Conv2D)          (None, 512, 512, 32)      9248      
                                                                 
 re_lu_21 (ReLU)             (None, 512, 512, 32)      0         
                                                                 
 batch_normalization_24 (Bat  (None, 512, 512, 32)     128       
 chNormalization)                                                
                                                                 
 conv2d_35 (Conv2D)          (None, 512, 512, 32)      9248      
                                                                 
 re_lu_22 (ReLU)             (None, 512, 512, 32)      0         
                                                                 
 batch_normalization_25 (Bat  (None, 512, 512, 32)     128       
 chNormalization)                                                
                                                                 
 conv2d_36 (Conv2D)          (None, 256, 256, 64)      18496     
                                                                 
 re_lu_23 (ReLU)             (None, 256, 256, 64)      0         
                                                                 
 batch_normalization_26 (Bat  (None, 256, 256, 64)     256       
 chNormalization)                                                
                                                                 
 conv2d_37 (Conv2D)          (None, 256, 256, 64)      36928     
                                                                 
 re_lu_24 (ReLU)             (None, 256, 256, 64)      0         
                                                                 
 batch_normalization_27 (Bat  (None, 256, 256, 64)     256       
 chNormalization)                                                
                                                                 
 conv2d_38 (Conv2D)          (None, 256, 256, 64)      36928     
                                                                 
 re_lu_25 (ReLU)             (None, 256, 256, 64)      0         
                                                                 
 batch_normalization_28 (Bat  (None, 256, 256, 64)     256       
 chNormalization)                                                
                                                                 
 conv2d_39 (Conv2D)          (None, 256, 256, 64)      36928     
                                                                 
 re_lu_26 (ReLU)             (None, 256, 256, 64)      0         
                                                                 
 batch_normalization_29 (Bat  (None, 256, 256, 64)     256       
 chNormalization)                                                
                                                                 
 average_pooling2d_2 (Averag  (None, 64, 64, 64)       0         
 ePooling2D)                                                     
                                                                 
 flatten_6 (Flatten)         (None, 262144)            0         
                                                                 
 dense_12 (Dense)            (None, 10)                2621450   
                                                                 
=================================================================
Total params: 2,790,294
Trainable params: 2,789,456
Non-trainable params: 838
_________________________________________________________________
>>> plotting model: res
>>> training res model ...
8/8 [==============================] - 7s 737ms/step - loss: 33.2854 - accuracy: 0.6500
…
<><><><><><><><><><><><><><><><><><><><><><><><><><><><><><><><><><><><><><><><><><><><><><><><><><><><><><><><><><><><>
>>> starting model: vgg16 with : program_0
>>> vgg16 model intiated ...
xxx deleted, model lstmBi
>>> bulding vgg16 model ...
>>> showing vgg16 summery ...
Model: "model_7"
_________________________________________________________________
 Layer (type)                Output Shape              Param #   
=================================================================
 input_10 (InputLayer)       [(None, 512, 512, 3)]     0         
                                                                 
 block1_conv1 (Conv2D)       (None, 512, 512, 64)      1792      
                                                                 
 block1_conv2 (Conv2D)       (None, 512, 512, 64)      36928     
                                                                 
 block1_pool (MaxPooling2D)  (None, 256, 256, 64)      0         
                                                                 
 block2_conv1 (Conv2D)       (None, 256, 256, 128)     73856     
                                                                 
 block2_conv2 (Conv2D)       (None, 256, 256, 128)     147584    
                                                                 
 block2_pool (MaxPooling2D)  (None, 128, 128, 128)     0         
                                                                 
 block3_conv1 (Conv2D)       (None, 128, 128, 256)     295168    
                                                                 
 block3_conv2 (Conv2D)       (None, 128, 128, 256)     590080    
                                                                 
 block3_conv3 (Conv2D)       (None, 128, 128, 256)     590080    
                                                                 
 block3_pool (MaxPooling2D)  (None, 64, 64, 256)       0         
                                                                 
 block4_conv1 (Conv2D)       (None, 64, 64, 512)       1180160   
                                                                 
 block4_conv2 (Conv2D)       (None, 64, 64, 512)       2359808   
                                                                 
 block4_conv3 (Conv2D)       (None, 64, 64, 512)       2359808   
                                                                 
 block4_pool (MaxPooling2D)  (None, 32, 32, 512)       0         
                                                                 
 block5_conv1 (Conv2D)       (None, 32, 32, 512)       2359808   
                                                                 
 block5_conv2 (Conv2D)       (None, 32, 32, 512)       2359808   
                                                                 
 block5_conv3 (Conv2D)       (None, 32, 32, 512)       2359808   
                                                                 
 block5_pool (MaxPooling2D)  (None, 16, 16, 512)       0         
                                                                 
 global_average_pooling2d_2   (None, 512)              0         
 (GlobalAveragePooling2D)                                        
                                                                 
=================================================================
Total params: 14,714,688
Trainable params: 14,714,688
Non-trainable params: 0
_________________________________________________________________
>>> plotting model: vgg16
>>> training vgg16 model ...
…
>>> Restored model, accuracy: 50.00%
>>> successful model: vgg16 with : program_0
xxx deleted, model vgg16
<><><><><><><><><><><><><><><><><><><><><><><><><><><><><><><><><><><><><><><><><><><><><><><><><><><><><><><><><><><><>
>>> starting model: vgg16Seq with : program_0
>>> vgg16Seq model intiated ...
>>> bulding vgg16Seq model ...
>>> showing vgg16Seq summery ...
Model: "sequential_9"
_________________________________________________________________
 Layer (type)                Output Shape              Param #   
=================================================================
 conv2d_49 (Conv2D)          (None, 512, 512, 64)      1792      
                                                                 
 conv2d_50 (Conv2D)          (None, 512, 512, 64)      36928     
                                                                 
 max_pooling2d_4 (MaxPooling  (None, 256, 256, 64)     0         
 2D)                                                             
                                                                 
 conv2d_51 (Conv2D)          (None, 256, 256, 128)     73856     
                                                                 
 conv2d_52 (Conv2D)          (None, 256, 256, 128)     147584    
                                                                 
 max_pooling2d_5 (MaxPooling  (None, 128, 128, 128)    0         
 2D)                                                             
                                                                 
 conv2d_53 (Conv2D)          (None, 128, 128, 256)     295168    
                                                                 
 conv2d_54 (Conv2D)          (None, 128, 128, 256)     590080    
                                                                 
 conv2d_55 (Conv2D)          (None, 128, 128, 256)     590080    
                                                                 
 max_pooling2d_6 (MaxPooling  (None, 64, 64, 256)      0         
 2D)                                                             
                                                                 
 conv2d_56 (Conv2D)          (None, 64, 64, 512)       1180160   
                                                                 
 conv2d_57 (Conv2D)          (None, 64, 64, 512)       2359808   
                                                                 
 conv2d_58 (Conv2D)          (None, 64, 64, 512)       2359808   
                                                                 
 max_pooling2d_7 (MaxPooling  (None, 32, 32, 512)      0         
 2D)                                                             
                                                                 
 conv2d_59 (Conv2D)          (None, 32, 32, 512)       2359808   
                                                                 
 conv2d_60 (Conv2D)          (None, 32, 32, 512)       2359808   
                                                                 
 conv2d_61 (Conv2D)          (None, 32, 32, 512)       2359808   
                                                                 
 vgg16 (MaxPooling2D)        (None, 16, 16, 512)       0         
                                                                 
 flatten (Flatten)           (None, 131072)            0         
                                                                 
 fc1 (Dense)                 (None, 256)               33554688  
                                                                 
 fc2 (Dense)                 (None, 128)               32896     
                                                                 
 output (Dense)              (None, 1)                 129       
                                                                 
=================================================================
Total params: 48,302,401
Trainable params: 48,302,401
Non-trainable params: 0
_________________________________________________________________
>>> plotting model: vgg16Seq
/usr/local/lib/python3.7/dist-packages/keras/optimizer_v2/gradient_descent.py:102: UserWarning: The `lr` argument is deprecated, use `learning_rate` instead.
…
